Module(
  (module): PotentialNetParallel(
    (covalent_neighbor_threshold): GraphThreshold()
    (non_covalent_neighbor_threshold): GraphThreshold()
    (covalent_propagation): PotentialNetPropagation(
      (neighbor_threshold): GraphThreshold()
      (edge_network_nn): Sequential(
        (0): Linear(in_features=1, out_features=10, bias=True)
        (1): Softsign()
        (2): Linear(in_features=10, out_features=20, bias=True)
        (3): Softsign()
      )
      (edge_network): NNConv(20, 20)
      (gate): GatedGraphConv(20, num_layers=1)
      (attention): PotentialNetAttention(
        (net_i): Sequential(
          (0): Linear(in_features=40, out_features=20, bias=True)
          (1): Softsign()
          (2): Linear(in_features=20, out_features=128, bias=True)
          (3): Softsign()
        )
        (net_j): Sequential(
          (0): Linear(in_features=20, out_features=128, bias=True)
          (1): Softsign()
        )
      )
    )
    (non_covalent_propagation): PotentialNetPropagation(
      (neighbor_threshold): GraphThreshold()
      (edge_network_nn): Sequential(
        (0): Linear(in_features=1, out_features=64, bias=True)
        (1): Softsign()
        (2): Linear(in_features=64, out_features=128, bias=True)
        (3): Softsign()
      )
      (edge_network): NNConv(128, 128)
      (gate): GatedGraphConv(128, num_layers=1)
      (attention): PotentialNetAttention(
        (net_i): Sequential(
          (0): Linear(in_features=256, out_features=128, bias=True)
          (1): Softsign()
          (2): Linear(in_features=128, out_features=128, bias=True)
          (3): Softsign()
        )
        (net_j): Sequential(
          (0): Linear(in_features=128, out_features=128, bias=True)
          (1): Softsign()
        )
      )
    )
    (output): PotentialNetFullyConnected(
      (output): Sequential(
        (0): Linear(in_features=128, out_features=85, bias=True)
        (1): ReLU()
        (2): Linear(in_features=85, out_features=64, bias=True)
        (3): ReLU()
        (4): Linear(in_features=64, out_features=1, bias=True)
      )
    )
  )
) Module(
  (module): PotentialNetParallel(
    (covalent_neighbor_threshold): GraphThreshold()
    (non_covalent_neighbor_threshold): GraphThreshold()
    (covalent_propagation): PotentialNetPropagation(
      (neighbor_threshold): GraphThreshold()
      (edge_network_nn): Sequential(
        (0): Linear(in_features=1, out_features=10, bias=True)
        (1): Softsign()
        (2): Linear(in_features=10, out_features=20, bias=True)
        (3): Softsign()
      )
      (edge_network): NNConv(20, 20)
      (gate): GatedGraphConv(20, num_layers=1)
      (attention): PotentialNetAttention(
        (net_i): Sequential(
          (0): Linear(in_features=40, out_features=20, bias=True)
          (1): Softsign()
          (2): Linear(in_features=20, out_features=128, bias=True)
          (3): Softsign()
        )
        (net_j): Sequential(
          (0): Linear(in_features=20, out_features=128, bias=True)
          (1): Softsign()
        )
      )
    )
    (non_covalent_propagation): PotentialNetPropagation(
      (neighbor_threshold): GraphThreshold()
      (edge_network_nn): Sequential(
        (0): Linear(in_features=1, out_features=64, bias=True)
        (1): Softsign()
        (2): Linear(in_features=64, out_features=128, bias=True)
        (3): Softsign()
      )
      (edge_network): NNConv(128, 128)
      (gate): GatedGraphConv(128, num_layers=1)
      (attention): PotentialNetAttention(
        (net_i): Sequential(
          (0): Linear(in_features=256, out_features=128, bias=True)
          (1): Softsign()
          (2): Linear(in_features=128, out_features=128, bias=True)
          (3): Softsign()
        )
        (net_j): Sequential(
          (0): Linear(in_features=128, out_features=128, bias=True)
          (1): Softsign()
        )
      )
    )
    (output): PotentialNetFullyConnected(
      (output): Sequential(
        (0): Linear(in_features=128, out_features=85, bias=True)
        (1): ReLU()
        (2): Linear(in_features=85, out_features=64, bias=True)
        (3): ReLU()
        (4): Linear(in_features=64, out_features=1, bias=True)
      )
    )
  )
)
591 complexes in dataset
232648 total parameters.
  0%|          | 0/591 [00:00<?, ?it/s]  0%|          | 1/591 [00:01<10:16,  1.05s/it]  1%|          | 6/591 [00:01<01:27,  6.65it/s]  2%|▏         | 10/591 [00:01<00:51, 11.28it/s]  3%|▎         | 15/591 [00:01<00:33, 17.37it/s]  3%|▎         | 20/591 [00:01<00:25, 22.61it/s]  4
…
