…
  File "/pubhome/xli02/opt/miniconda/envs/fast/lib/python3.6/site-packages/torch/_utils.py", line 80, in _cuda
    return new_type(self.size()).copy_(self, non_blocking)
  File "/pubhome/xli02/opt/miniconda/envs/fast/lib/python3.6/site-packages/torch/cuda/__init__.py", line 484, in _lazy_new
    return super(_CudaBase, cls).__new__(cls, *args, **kwargs)
RuntimeError: CUDA error: out of memory
Module(
  (module): PotentialNetParallel(
    (covalent_neighbor_threshold): GraphThreshold()
    (non_covalent_neighbor_threshold): GraphThreshold()
    (covalent_propagation): PotentialNetPropagation(
      (neighbor_threshold): GraphThreshold()
      (edge_network_nn): Sequential(
        (0): Linear(in_features=1, out_features=10, bias=True)
        (1): Softsign()
        (2): Linear(in_features=10, out_features=20, bias=True)
        (3): Softsign()
      )
      (edge_network): NNConv(20, 20)
      (gate): GatedGraphConv(20, num_layers=1)
      (attention): PotentialNetAttention(
        (net_i): Sequential(
          (0): Linear(in_features=40, out_features=20, bias=True)
          (1): Softsign()
          (2): Linear(in_features=20, out_features=128, bias=True)
          (3): Softsign()
        )
        (net_j): Sequential(
          (0): Linear(in_features=20, out_features=128, bias=True)
          (1): Softsign()
        )
      )
    )
    (non_covalent_propagation): PotentialNetPropagation(
      (neighbor_threshold): GraphThreshold()
      (edge_network_nn): Sequential(
        (0): Linear(in_features=1, out_features=64, bias=True)
        (1): Softsign()
        (2): Linear(in_features=64, out_features=128, bias=True)
        (3): Softsign()
      )
      (edge_network): NNConv(128, 128)
      (gate): GatedGraphConv(128, num_layers=1)
      (attention): PotentialNetAttention(
        (net_i): Sequential(
          (0): Linear(in_features=256, out_features=128, bias=True)
          (1): Softsign()
          (2): Linear(in_features=128, out_features=128, bias=True)
          (3): Softsign()
        )
        (net_j): Sequential(
          (0): Linear(in_features=128, out_features=128, bias=True)
          (1): Softsign()
        )
      )
    )
    (output): PotentialNetFullyConnected(
      (output): Sequential(
        (0): Linear(in_features=128, out_features=85, bias=True)
        (1): ReLU()
        (2): Linear(in_features=85, out_features=64, bias=True)
        (3): ReLU()
        (4): Linear(in_features=64, out_features=1, bias=True)
      )
    )
  )
) Module(
  (module): PotentialNetParallel(
    (covalent_neighbor_threshold): GraphThreshold()
    (non_covalent_neighbor_threshold): GraphThreshold()
    (covalent_propagation): PotentialNetPropagation(
      (neighbor_threshold): GraphThreshold()
      (edge_network_nn): Sequential(
        (0): Linear(in_features=1, out_features=10, bias=True)
        (1): Softsign()
        (2): Linear(in_features=10, out_features=20, bias=True)
        (3): Softsign()
      )
      (edge_network): NNConv(20, 20)
      (gate): GatedGraphConv(20, num_layers=1)
      (attention): PotentialNetAttention(
        (net_i): Sequential(
          (0): Linear(in_features=40, out_features=20, bias=True)
          (1): Softsign()
          (2): Linear(in_features=20, out_features=128, bias=True)
          (3): Softsign()
        )
        (net_j): Sequential(
          (0): Linear(in_features=20, out_features=128, bias=True)
          (1): Softsign()
        )
      )
    )
    (non_covalent_propagation): PotentialNetPropagation(
      (neighbor_threshold): GraphThreshold()
      (edge_network_nn): Sequential(
        (0): Linear(in_features=1, out_features=64, bias=True)
        (1): Softsign()
        (2): Linear(in_features=64, out_features=128, bias=True)
        (3): Softsign()
      )
      (edge_network): NNConv(128, 128)
      (gate): GatedGraphConv(128, num_layers=1)
      (attention): PotentialNetAttention(
        (net_i): Sequential(
          (0): Linear(in_features=256, out_features=128, bias=True)
          (1): Softsign()
          (2): Linear(in_features=128, out_features=128, bias=True)
          (3): Softsign()
        )
        (net_j): Sequential(
          (0): Linear(in_features=128, out_features=128, bias=True)
          (1): Softsign()
        )
      )
    )
    (output): PotentialNetFullyConnected(
      (output): Sequential(
        (0): Linear(in_features=128, out_features=85, bias=True)
        (1): ReLU()
        (2): Linear(in_features=85, out_features=64, bias=True)
        (3): ReLU()
        (4): Linear(in_features=64, out_features=1, bias=True)
      )
    )
  )
)
4725 complexes in dataset
232648 total parameters.
  0%|          | 0/4725 [00:00<?, ?it/s]  0%|          | 1/4725 [00:01<1:37:32,  1.24s/it]  0%|          | 17/4725 [00:01<04:33, 17.21it/s]   1%|          | 33/4725 [00:01<02:12, 35.45it/s]  1%|          | 49/4725 [00:01<01:25, 54.53it/s]  1%|▏         | 65/4725 [00:01<01:03, 73.
…
