Module(
  (module): PotentialNetParallel(
    (covalent_neighbor_threshold): GraphThreshold()
    (non_covalent_neighbor_threshold): GraphThreshold()
    (covalent_propagation): PotentialNetPropagation(
      (neighbor_threshold): GraphThreshold()
      (edge_network_nn): Sequential(
        (0): Linear(in_features=1, out_features=10, bias=True)
        (1): Softsign()
        (2): Linear(in_features=10, out_features=20, bias=True)
        (3): Softsign()
      )
      (edge_network): NNConv(20, 20)
      (gate): GatedGraphConv(20, num_layers=1)
      (attention): PotentialNetAttention(
        (net_i): Sequential(
          (0): Linear(in_features=40, out_features=20, bias=True)
          (1): Softsign()
          (2): Linear(in_features=20, out_features=128, bias=True)
          (3): Softsign()
        )
        (net_j): Sequential(
          (0): Linear(in_features=20, out_features=128, bias=True)
          (1): Softsign()
        )
      )
    )
    (non_covalent_propagation): PotentialNetPropagation(
      (neighbor_threshold): GraphThreshold()
      (edge_network_nn): Sequential(
        (0): Linear(in_features=1, out_features=64, bias=True)
        (1): Softsign()
        (2): Linear(in_features=64, out_features=128, bias=True)
        (3): Softsign()
      )
      (edge_network): NNConv(128, 128)
      (gate): GatedGraphConv(128, num_layers=1)
      (attention): PotentialNetAttention(
        (net_i): Sequential(
          (0): Linear(in_features=256, out_features=128, bias=True)
          (1): Softsign()
          (2): Linear(in_features=128, out_features=128, bias=True)
          (3): Softsign()
        )
        (net_j): Sequential(
          (0): Linear(in_features=128, out_features=128, bias=True)
          (1): Softsign()
        )
      )
    )
    (output): PotentialNetFullyConnected(
      (output): Sequential(
        (0): Linear(in_features=128, out_features=85, bias=True)
        (1): ReLU()
        (2): Linear(in_features=85, out_features=64, bias=True)
        (3): ReLU()
        (4): Linear(in_features=64, out_features=1, bias=True)
      )
    )
  )
) Module(
  (module): PotentialNetParallel(
    (covalent_neighbor_threshold): GraphThreshold()
    (non_covalent_neighbor_threshold): GraphThreshold()
    (covalent_propagation): PotentialNetPropagation(
      (neighbor_threshold): GraphThreshold()
      (edge_network_nn): Sequential(
        (0): Linear(in_features=1, out_features=10, bias=True)
        (1): Softsign()
        (2): Linear(in_features=10, out_features=20, bias=True)
        (3): Softsign()
      )
      (edge_network): NNConv(20, 20)
      (gate): GatedGraphConv(20, num_layers=1)
      (attention): PotentialNetAttention(
        (net_i): Sequential(
          (0): Linear(in_features=40, out_features=20, bias=True)
          (1): Softsign()
          (2): Linear(in_features=20, out_features=128, bias=True)
          (3): Softsign()
        )
        (net_j): Sequential(
          (0): Linear(in_features=20, out_features=128, bias=True)
          (1): Softsign()
        )
      )
    )
    (non_covalent_propagation): PotentialNetPropagation(
      (neighbor_threshold): GraphThreshold()
      (edge_network_nn): Sequential(
        (0): Linear(in_features=1, out_features=64, bias=True)
        (1): Softsign()
        (2): Linear(in_features=64, out_features=128, bias=True)
        (3): Softsign()
      )
      (edge_network): NNConv(128, 128)
      (gate): GatedGraphConv(128, num_layers=1)
      (attention): PotentialNetAttention(
        (net_i): Sequential(
          (0): Linear(in_features=256, out_features=128, bias=True)
          (1): Softsign()
          (2): Linear(in_features=128, out_features=128, bias=True)
          (3): Softsign()
        )
        (net_j): Sequential(
          (0): Linear(in_features=128, out_features=128, bias=True)
          (1): Softsign()
        )
      )
    )
    (output): PotentialNetFullyConnected(
      (output): Sequential(
        (0): Linear(in_features=128, out_features=85, bias=True)
        (1): ReLU()
        (2): Linear(in_features=85, out_features=64, bias=True)
        (3): ReLU()
        (4): Linear(in_features=64, out_features=1, bias=True)
      )
    )
  )
)
576 complexes in dataset
232648 total parameters.
  0%|          | 0/576 [00:00<?, ?it/s]  0%|          | 1/576 [00:00<01:06,  8.66it/s]  2%|▏         | 14/576 [00:00<00:07, 71.07it/s]  5%|▌         | 29/576 [00:00<00:05, 102.94it/s]  8%|▊         | 44/576 [00:00<00:04, 119.89it/s] 10%|█         | 58/576 [00:00<00:04, 125.48it/s]
…
